weights/diabetes_80.pth (torch, 3223 bytes, 5 tensors)

0.weight f4 [16, 8]
000000 7a 0d 8a be 64 86 3a bc 7e 98 37 be 07 84 0b be
       -0.26963407 -0.01138458 -0.17929265 -0.13624583
000010 63 fe 0e bd 32 2a 3f 3d 78 f5 98 be 8a 94 13 bd
       -0.03491057 0.0466711 -0.29874778 -0.03603033
000020 1b 3a c1 bc 4b da c5 bb 17 2f a9 3e a1 b4 34 bd
       -0.023587277 -0.0060379854 0.3304374 -0.044117574
000030 ee c7 38 bd 0f b4 af be cf ec e2 be 73 38 52 3e
       -0.045112543 -0.3431706 -0.44321296 0.20529346
000040 56 06 9c be a5 72 44 3e 84 64 67 3e 20 db 6d be
       -0.30473584 0.19184358 0.22596937 -0.23228121
000050 55 ab ad 3d f3 27 40 3d 82 4d 91 be b4 3d 0a be
       0.084799446 0.0469131 -0.28379446 -0.135001
000060 09 05 8b be 42 0a b9 3d ab c3 9f 3e e9 03 8d 3d
       -0.2715228 0.0903516 0.3120397 0.068855114
000070 e8 19 0e 3e 06 da d8 3e d2 90 42 bc 2d aa 06 be
       0.1387707 0.4235384 -0.011875348 -0.13150854
000080 b1 2b 9b 3e 9a 34 97 be 52 92 43 3e a1 a3 55 be
       0.3030677 -0.2953232 0.19098786 -0.208632
000090 0b 74 13 bc 37 16 9e 3e 52 57 5e 3f 47 37 65 3d
       -0.008999835 0.30876324 0.8685199 0.05596092
0000a0 11 66 f3 be d9 86 a0 3d 22 ae 75 bd 7c b4 2d bc
       -0.47538808 0.0783822 -0.05998052 -0.010602113
0000b0 38 16 22 bc 0d dd 80 3e de 43 fd 3e f5 ac 1f bf
       -0.009892993 0.25168648 0.4946584 -0.62373286
0000c0 1c c7 d9 bd f3 45 f3 bd bd 0b d0 3d 3f c2 13 be
       -0.1063368 -0.11878576 0.10158489 -0.14429568
0000d0 31 79 3d be 80 ec a9 3e d0 ca 56 3d 62 33 4e 3e
       -0.18503262 0.33188248 0.05243951 0.20136788
0000e0 fd 68 d1 3e 83 61 3c bd 47 6d 8c be 01 0b 8d be
       0.40900412 -0.045991432 -0.27427122 -0.27547458
0000f0 fc c2 6e be a3 d2 0e be 5b 6d 34 bf a3 13 05 3f
       -0.23316568 -0.13947539 -0.70479363 0.5198309
000100 da d7 d3 3e 22 6b 2d bd 1e f2 f3 3d a5 41 5e be
       0.4137562 -0.042338498 0.119114146 -0.21704729
000110 32 a2 ef bd da 00 17 be da a7 94 be 16 4b cc 3e
       -0.11700858 -0.14746419 -0.2903431 0.39901036
000120 0e 2c 96 3e 79 6e cd be 1d 00 d2 be fb fb dd 3e
       0.29330486 -0.40123346 -0.4101571 0.43356308
000130 e2 72 6f 3e 92 c4 a9 3c ec ef cb be f7 30 02 3e
       0.23383668 0.020723615 -0.39831483 0.12713991
000140 e2 f7 5f be a9 35 b3 3d 8e 97 9d be 3b cd 60 3c
       -0.21871904 0.08750469 -0.3077969 0.013720806
000150 f3 2e ad 3d 74 6c 9a bc 53 d7 de bd c0 0c 31 3d
       0.084562205 -0.018850543 -0.108809136 0.04322505
000160 07 ac 1b 3e 35 7a 72 3e d1 fb 1c 3e 7d 17 b4 be
       0.15202342 0.23679431 0.15330435 -0.3517417
000170 b7 37 16 3d e5 7f 72 be 7f 9f e6 3e 38 c5 1b be
       0.036674228 -0.236816 0.4504356 -0.15211952
000180 97 19 39 bd 80 a5 69 be af 53 2c be 89 4c da bd
       -0.04519042 -0.2281704 -0.16828798 -0.10659129
000190 69 bd 17 3d 46 70 41 be 82 11 06 be 28 8f a2 3e
       0.03704587 -0.18890485 -0.13092616 0.31749845
0001a0 9e 81 5b 3f 9a fe c1 3d 97 15 7f 3b 1a 3d 1d 3e
       0.85744655 0.094723895 0.003892278 0.1535534
0001b0 84 4a a1 be 84 a5 1e bc d8 23 17 3e 4c ba 70 3e
       -0.31502163 -0.009683017 0.14759767 0.23508567
0001c0 fa b7 44 3a e7 1d 6e 3e c5 74 c7 be 42 7b 9a 3c
       0.0007504221 0.23253594 -0.38956276 0.018857602
0001d0 8b fc 86 3d 7f 8b 3e be 2a 0b bb 3e 88 e3 3d 3e
       0.065911375 -0.18607901 0.36531955 0.18543828
0001e0 ff ed 5b 3f 60 d3 23 bf 82 e2 33 be 72 b0 a2 bc
       0.8591003 -0.6399441 -0.17566875 -0.019859526
0001f0 80 02 56 be 56 c5 94 3e 87 14 e1 be 14 47 2c 3f
       -0.20899391 0.29056805 -0.43960974 0.67295957

0.bias f4 [16]
000000 9b a3 9e 3e 0f 44 01 3f 2a 59 5e 3f dc e5 0d bf
       0.30984196 0.50494474 0.86854804 -0.5542886
000010 10 5f 71 3f 46 48 d6 be 9e 30 d8 be 6f 36 59 3f
       0.9428568 -0.41852015 -0.42224592 0.84848684
000020 6e f9 fc 3d 2f 2d 2f be 92 ff d6 3e 8b 9c 9d bf
       0.123522624 -0.1710708 0.4199186 -1.2313398
000030 43 71 f7 bd fa e8 76 bf c1 d7 12 bf 8a 4e 0f bd
       -0.1208215 -0.96449244 -0.57360464 -0.03498701

2.weight f4 [10, 16]
000000 70 3e d3 3c 71 db 11 3d 56 cc a0 3e 87 0e 64 bc
       0.025786608 0.035609666 0.31405896 -0.013919479
000010 f0 4a 8b 3f 0a c6 8b bf d3 38 3b be 1d 9c 84 3e
       1.0882244 -1.0919812 -0.18283395 0.25900355
000020 40 42 23 bd 9a 1b a8 bc b3 63 f7 3d f7 1a 61 be
       -0.039858103 -0.020520974 0.12079563 -0.21982943
000030 22 8c 53 be a9 91 19 be 8c b1 73 bd 43 f0 66 bf
       -0.20658925 -0.14996971 -0.059495494 -0.9021036
000040 64 2b 86 3d 92 5d 5d be 41 e4 0b 3d d8 c8 41 be
       0.06551245 -0.21617725 0.034153227 -0.18924272
000050 f0 ab 9c bc b0 62 81 3e 9b af cf bb 9d 05 23 3f
       -0.019124955 0.25270605 -0.0063380725 0.6368044
000060 93 75 e6 3d e5 c0 81 3e d7 f9 86 3e 42 db 0b bd
       0.11252894 0.2534248 0.26362488 -0.034144647
000070 c0 01 98 3d be f1 41 3d a9 88 a0 3d fe 23 14 3e
       0.07422209 0.047349684 0.07838566 0.14466855
000080 20 e8 06 3e 9d 59 8f bd 73 9e 58 be 13 0a d8 3d
       0.13174486 -0.06999514 -0.21154194 0.105487965
000090 e6 15 90 3e 8d cf 89 be 28 0a 1a 3e 99 b8 17 3f
       0.28141707 -0.2691616 0.15042937 0.5926605
0000a0 11 1d 1e be 74 5c 29 3e 51 05 28 3e e6 25 17 3e
       -0.15440775 0.16539174 0.16408278 0.14760551
0000b0 f1 28 45 3d aa 8c 98 3d d2 da b3 3d 7b f4 b2 be
       0.048134748 0.074487045 0.08781971 -0.3495215
0000c0 a8 6b 5a 3e 8d 59 85 3e a7 74 b2 be b9 1b 54 3e
       0.2133013 0.26044884 -0.34854624 0.207137
0000d0 55 1e a6 3e 33 1c 0c bd 7d 91 77 3e f8 ae 11 bf
       0.32445017 -0.03420658 0.24176593 -0.56907606
0000e0 6e 95 b5 be 0c 93 3d 3e 33 95 33 3e b4 89 93 be
       -0.35465568 0.18513125 0.17537384 -0.28815997
0000f0 fa 02 33 be 29 68 0e bd 72 d3 0a 3e 1a 7e f0 bc
       -0.17481604 -0.034767304 0.13557222 -0.029357005
000100 68 26 22 bd 20 1e 6a 3c e3 64 3d 3e f5 84 5b 3c
       -0.03958741 0.014289409 0.18495516 0.013398399
000110 a7 c6 36 3f 29 75 37 be 86 8e 67 be 54 ea 39 3e
       0.7139687 -0.17915787 -0.22612962 0.18155795
000120 fe b1 0a be e9 ec 24 be 18 bf 64 be be 50 08 bd
       -0.13544461 -0.16105999 -0.22338521 -0.033280127
000130 8a bb 19 3e a2 12 e8 bc fe 05 30 be 7a 37 03 bf
       0.15012947 -0.028329197 -0.17189786 -0.51256526
000140 88 b3 13 3e 98 64 7a 3e c9 86 8d bc 32 75 8f bc
       0.14423954 0.24452436 -0.017276185 -0.017511938
000150 51 27 87 3e 48 fd 3e be fb 3a 88 3d 6e b9 1f 3f
       0.26397184 -0.18651307 0.06651875 0.6239232
000160 e6 f2 49 3e 3e 93 04 be f2 32 13 bd 96 0f bc 3b
       0.19721565 -0.12946793 -0.035937257 0.0057391627
000170 20 ad cf bc f2 63 2d 3d 30 0a 7d 3d 05 0e de be
       -0.025351107 0.042331643 0.061777294 -0.4337007
000180 c8 b2 fe 3d 52 1c f5 3d 4c 8f b2 bd 4e 8a 6a 3e
       0.124364436 0.11968292 -0.08718738 0.22904322
000190 49 e5 16 3f ed a6 4d bf c3 d6 25 be 7d ec 4e 3e
       0.5894361 -0.80332834 -0.16195206 0.202074
0001a0 5f 26 3f bc c0 cd d5 bd d1 d2 3c 3e 09 36 d2 bd
       -0.011666863 -0.10439634 0.18439795 -0.10264213
0001b0 70 8a f1 3d 8e 1b 18 be 8e 94 3d bd d3 c6 12 bf
       0.11793983 -0.14854261 -0.04628425 -0.5733463
0001c0 62 87 49 3e b3 a4 15 be 71 e2 da 3d 86 2e 64 be
       0.1968055 -0.14613609 0.106877215 -0.22283372
0001d0 88 6e 3e bd 02 b6 3c bb 79 16 ce bd da 5e 41 be
       -0.04649213 -0.0028795009 -0.1006288 -0.18883839
0001e0 94 47 7d bd 7d 47 84 3d 93 48 4a be c2 d4 42 3e
       -0.06183584 0.06458948 -0.19754247 0.19026473
0001f0 5a bb 79 be 08 8a 81 3d be ae 66 be 50 e6 47 be
       -0.24387875 0.063251555 -0.22527596 -0.19521451
000200 54 cd 94 3d 9e 7c e4 3d f6 59 77 3e 6d f1 91 3e
       0.07265726 0.11156581 0.24155411 0.28504506
000210 86 ce 14 bf 7f 01 ce 3d 16 21 b9 bc e7 e4 76 be
       -0.5812763 0.10058879 -0.022598784 -0.24110757
000220 c7 72 ac bd ea 68 b8 bd ea e1 0d be 3a 57 23 be
       -0.084203295 -0.09004386 -0.1385571 -0.15951243
000230 8f d4 2e be 8c 37 af 3d 69 e8 41 3e a8 eb a5 3d
       -0.17073272 0.085555166 0.18936314 0.081015885
000240 ba 78 65 be fe 60 75 3e 46 c4 4f be 6d 04 78 3e
       -0.22409335 0.23962781 -0.20289716 0.24220438
000250 84 5d 96 3e 35 88 05 3f 94 32 a0 3e f3 da 3e bc
       0.29368222 0.5216096 0.31288588 -0.011648881
000260 ff 0c 2d bf 6e 79 01 3d 2d 40 fb bc 65 76 87 bd
       -0.67597955 0.031609945 -0.03067025 -0.06614379
000270 4d ef b1 3d ba e5 c0 be 00 63 02 3e bb a7 db 3e
       0.08688221 -0.37675267 0.12733078 0.42901406

2.bias f4 [10]
000000 04 f6 a7 3f 9c a8 eb bd e1 89 c7 3b ea e7 81 3e
       1.3121953 -0.11506769 0.0060894345 0.2537225
000010 61 2b d8 3e 0b 61 0c 3f 15 a4 d5 3e c7 1c 43 3e
       0.42220595 0.54835576 0.41726747 0.19053946
000020 c1 78 fd be 13 da 86 bf
       -0.4950619 -1.0535301

4.weight f4 [1, 10]
000000 14 89 80 bf 58 8a 8e 3e 2a a3 b7 b8 50 a1 f6 be
       -1.0041833 0.27839923 -8.756512e-05 -0.48169947
000010 7d 64 0f be 9a b6 a0 be 8f 79 a3 be f7 43 11 3e
       -0.14003177 -0.31389314 -0.3192868 0.14186083
000020 74 b3 82 3e 39 77 57 3f
       0.25527537 0.84166294
