weights/heart_75.pth (torch, 1823 bytes, 3 tensors)

0.weight f4 [10, 5]
00000000: 966c 64be 737b 0ec0 c516 333f de76 63be
00000010: 920e 8f3e d686 d43e c0d7 46bf 0169 9f3f
00000020: a12f 773e 1b06 b63e 8ced 1cbe 5db2 c1be
00000030: 7f71 7d3e 92c2 e1be c497 77be 4cf1 173e
00000040: 4db2 1b3d 3765 d8bd 7005 a0bd 76fa b4bd
00000050: 6e8c 25be 52c2 283f d244 46bf a93b ad3c
00000060: 4887 3b3e db6e 8fbe 4936 ca3e 107e 7fbe
00000070: d144 38be 5929 f9bd 3274 de3e ff07 8bbe
00000080: 94a6 cebc 39a9 ccbe 7837 bb3c eaa2 ef3d
00000090: 4919 ccbe 2e42 cdbe 75be cebe 9c43 80be
000000a0: 1e59 e0bd ce4d a3bf bbbf e43e 2c71 443e
000000b0: bf2f df3e a322 083e 8b6f a33f 6f97 7ebf
000000c0: 6903 91bd bb00 d33e
-0.22307047 -2.2262847 0.6995662 -0.22213313 0.27940804 0.41509122 -0.7767296 1.245392
0.24139263 0.35551533 -0.15324992 -0.37831393 0.24750327 -0.44093758 -0.24178988 0.14838141
0.038011838 -0.1056618 -0.07813537 -0.08836834 -0.16166851 0.6592151 -0.7744876 0.021146612
0.18313324 -0.28014264 0.3949454 -0.24950433 -0.17995001 -0.121660896 0.43448025 -0.27154538
-0.025225915 -0.39972857 0.022853598 0.11700995 -0.3986304 -0.40089554 -0.40379682 -0.25051582
-0.10954498 -1.2758119 0.4467753 0.19183797 0.43591115 0.13294463 1.2768415 -0.9944982
-0.070807286 0.41211495

0.bias f4 [10]
00000000: 5a7b 6440 848c 6640 77c7 9abe b9f5 f83d
00000010: 2f51 56c0 2f4f 9bbe 3de4 373e 20b6 aebe
00000020: 14cd 3040 f491 2ac0
3.5700288 3.6023264 -0.30230305 0.12156243 -3.348705 -0.3033385 0.1795816 -0.34123325
2.762517 -2.6651583

2.weight f4 [1, 10]
00000000: 832e b63e d9dd 713d dec4 253e 8289 053e
00000010: 567e c7be d066 6e3d ddd4 dbbd 37dd 5dbe
00000020: 2990 353e f397 a2be
0.3558236 0.05904946 0.1618838 0.13040736 -0.38963574 0.05820352 -0.1073396 -0.21666418
0.17730774 -0.31756553
