weights/liver_patient_75.pth (torch, 2775 bytes, 5 tensors)

0.weight f4 [9, 6]
000000 6f 16 bc 3e ce 33 0f bd 72 f1 a3 be cb db 7a 3e
       0.36735865 -0.034961514 -0.32020146 0.24497907
000010 70 6a 88 bd 98 6b 32 be 25 33 0e 3d 13 30 63 3c
       -0.06660926 -0.17423856 0.034716744 0.013866442
000020 26 c6 8b b9 5b 84 cf be 4e 62 19 be 29 2f 8b 3e
       -0.00026659778 -0.40530667 -0.14978907 0.27184418
000030 c1 3e 08 3f 62 3c 33 3f ac e5 9a 3e 8e 08 93 3e
       0.53220755 0.7001401 0.3025335 0.28717464
000040 90 a1 21 3e 2d be ae be b8 ba 93 bd 21 84 bc 3c
       0.15784287 -0.34129468 -0.07213348 0.023012223
000050 f3 e3 d0 bc 5a 07 8f 3b 87 e6 a0 3e 45 c3 6a be
       -0.02549932 0.00436489 0.31425878 -0.22926052
000060 33 20 5b bf 6f 7b a4 bf fd 5e 0f 3d 38 f5 9f 3e
       -0.8559601 -1.2850169 0.035002697 0.31241775
000070 3e d5 13 3e 92 2a 20 3f 7d 8b f2 bc d9 a0 f5 be
       0.14436814 0.6256496 -0.029607529 -0.4797428
000080 8b 5d d4 3d 70 c0 86 3e 4c f7 04 be 94 0e b4 bd
       0.103694044 0.26318693 -0.12984961 -0.08791843
000090 de 98 bd be 61 53 d1 be 04 50 a3 be f0 f7 03 3e
       -0.3703069 -0.40883926 -0.31896985 0.1288755
0000a0 27 f9 a7 3d ac ba 95 3e 02 f8 0b bf 75 5d f5 3d
       0.08201819 0.29243982 -0.54675305 0.11980716
0000b0 27 e5 8c 3e d5 e9 3e be b0 b2 86 3e 4d df 91 3e
       0.2751858 -0.18643887 0.26308203 0.28490677
0000c0 26 4a fc 3d 58 28 b7 3e d5 20 83 be 57 e0 cb 3c
       0.1231883 0.35772967 -0.25610986 0.024887247
0000d0 e2 42 0c bc 45 63 b6 be
       -0.008560868 -0.35622612

0.bias f4 [9]
000000 fb e6 71 3e 86 1e 82 3e 86 df 9c be 65 c0 e1 be
       0.23623268 0.25413913 -0.30639285 -0.44092098
000010 91 37 4e 3f c1 e4 73 3e 2d 48 3b 3c e3 16 56 3e
       0.8055354 0.23817731 0.011430782 0.20907168
000020 b7 2a c1 be
       -0.377279

2.weight f4 [12, 9]
000000 eb 23 88 3e 43 87 82 3e e3 c6 a3 3d f1 76 75 be
       0.26589903 0.25493822 0.07996919 -0.23971154
000010 91 97 c7 3d 32 93 3f be 62 2b 82 bc 6f ef 4d be
       0.09745706 -0.18708494 -0.015889827 -0.20110868
000020 74 74 31 3e d6 77 8a be c0 e5 2f 3e 4f 4a b1 3e
       0.1732958 -0.27044553 0.17177486 0.34627005
000030 e3 f4 2a be c5 c4 c8 bd a4 e7 56 be 5b 8b 18 bd
       -0.1669498 -0.09803156 -0.20986801 -0.037242275
000040 be 32 1b be 37 21 95 be c7 9e 74 3e c0 07 67 3e
       -0.15156075 -0.29126903 0.23888694 0.2256155
000050 c7 d6 cf bd 10 f7 0f 3e 53 80 50 3e 6e d7 b0 3d
       -0.101483874 0.1405909 0.20361452 0.0863484
000060 cd 55 2e 3d 3f 35 c0 bd e4 6b 3c 3e 54 da f2 3d
       0.042562295 -0.09385156 0.18400532 0.11858049
000070 c4 40 89 be fc 3d 97 3e 9e c5 60 3e d1 8c 54 be
       -0.26807225 0.29539478 0.21950385 -0.20756842
000080 d5 34 ad 3e b9 1b 8e be ed b3 8f 3d fa 17 4c bd
       0.3382937 -0.27755526 0.0701674 -0.049827553
000090 99 da 11 bd 56 95 f0 bd 50 6c 88 3d 6d 2a 89 be
       -0.03560886 -0.117472336 0.06661284 -0.2679018
0000a0 e0 fb 89 3e e0 b6 99 3e aa 2f 9d 3d b5 fb 16 3e
       0.26949978 0.30022335 0.07675107 0.14744456
0000b0 58 1b 39 be a7 88 ac be 06 9e 41 be 77 7a 4d 3e
       -0.18076837 -0.33698007 -0.18907937 0.20066248
0000c0 35 ab f5 3b e1 22 42 be d7 6c 3d 3e ba 38 1b 3e
       0.007497216 -0.18958618 0.1849855 0.15158358
0000d0 ec 1a 9d be bf 24 87 3e 2d ec b7 bd 93 7d 39 3e
       -0.30684602 0.26395223 -0.08980594 0.18114309
0000e0 7e e2 0d 3d 92 24 e0 3c c8 9f 8e be 96 b0 7c 3e
       0.034639828 0.027361188 -0.27856278 0.24676737
0000f0 0b c4 7b 3e 2f 0d a8 be 60 58 43 be f9 8a 95 be
       0.24586503 -0.32822558 -0.19076681 -0.2920759
000100 ba 32 a0 be 31 1a 72 3e 0f 89 c7 be 04 7c 13 3e
       -0.312887 0.23642804 -0.38971755 0.14402777
000110 fb a4 92 3e ec a6 a1 bb 19 84 6c be c1 af 96 3e
       0.28641495 -0.0049332287 -0.23097266 0.29430965
000120 8e 40 b0 3d 3e 63 9c be b0 ed 83 3e 3a a0 9f 3d
       0.08606063 -0.30544466 0.2576728 0.07794233
000130 80 0a da bd 6f 07 23 be 9f 02 1a 3e cf d3 06 3e
       -0.10646534 -0.15920804 0.15040062 0.13166736
000140 60 ca 9b 3e 90 fe 55 3e 30 2c 68 be d4 d5 89 3e
       0.30427837 0.20897889 -0.22673106 0.2692095
000150 86 ba 6e be 6b c1 a0 be 13 05 9a bd 36 17 8d 3e
       -0.2331334 -0.31397566 -0.07520499 0.2755677
000160 f5 01 0e 3e a9 32 41 3e 7b 93 73 3e 00 2f 3a 3e
       0.13867934 0.18866982 0.23786728 0.18181992
000170 00 9a 3c bc 9b a2 41 be 48 8d a8 be d4 db 84 be
       -0.011511326 -0.18909685 -0.3292029 -0.25948966
000180 ca c0 89 be c0 3d 3a 3d 66 64 e0 bd 44 f3 38 bd
       -0.269049 0.045469046 -0.109566495 -0.04515387
000190 e0 d2 58 bd d3 27 e4 3d c6 05 90 3e 98 0f 8e 3b
       -0.05293548 0.11140408 0.28129405 0.004335355
0001a0 45 86 c2 be 9a d7 3a be 7b f9 74 bd 96 63 ec 3d
       -0.37993065 -0.18246308 -0.059808236 0.11542432

2.bias f4 [12]
000000 b0 14 9e bd 79 a6 30 3d 72 99 e4 be 77 be 02 3e
       -0.077187896 0.04312751 -0.4464832 0.12767969
000010 1a 03 41 3d 10 0c 08 be ed 78 62 be ba 49 f9 be
       0.0471221 -0.13285851 -0.22116442 -0.4868906
000020 ef 35 af be 33 52 81 bd 00 6b dc 3b e1 90 1c bd
       -0.34220836 -0.063145064 0.0067266226 -0.038224105

4.weight f4 [1, 12]
000000 77 5b 31 be 03 e7 2c 3e 57 fb 2e 3e 89 ab 02 3e
       -0.17320047 0.16884999 0.17088066 0.12760748
000010 01 ab 03 be 08 3a c2 bd 9a 3a 7d be 24 b8 67 3b
       -0.12858202 -0.09483725 -0.24729386 0.003535756
000020 d7 88 94 3b 41 37 b7 bd 97 e2 fc 3d 00 d7 8c bd
       0.004532914 -0.08946086 0.12347906 -0.068769455
