weights/parkinson_82.pth (torch, 1823 bytes, 3 tensors)

0.weight f4 [10, 5]
00000000: f4e1 14be d81f d73e bbde 873e 0b6b 5940
00000010: ef96 7040 874c c8b9 89ec 5a3c dd24 70be
00000020: 7a4c 233c 6b69 bf3d 53dc 283e 36cc 433e
00000030: 1a15 d3be aa79 0bc0 2aa0 e5bf 6b48 c43e
00000040: 9ca0 39bc c706 40be a55d 18c0 e095 2bc0
00000050: 1f3d 9a3e 3e79 053d df5a 92be acc0 3840
00000060: 9afa 3240 251f c1be fe2e 6a3e 5bf0 ce3e
00000070: 6efc 09c0 7757 e0bf 7ae1 a3be 82df 683d
00000080: 6e58 2a3e ee3f 8abf 41fc 7ebf e60a 9b3e
00000090: 4629 babd aca0 1a3e 833e 63c0 5f5b 6fc0
000000a0: 9b60 313e 1260 d63e 0966 e33e dc1b 5240
000000b0: c330 4d40 4512 38be b680 bc3d 14c8 ba3e
000000c0: a684 0ec0 8a11 27c0
-0.1453932 0.42016482 0.26537117 3.3971584 3.7592123 -0.0003820399 0.013362058 -0.23451562
0.009966964 0.09346279 0.16490297 0.19120869 -0.41227037 -2.1793008 -1.7939503 0.383365
-0.011329796 -0.18752585 -2.3807156 -2.6810226 0.30124757 0.03258633 -0.28584954 2.8867598
2.7965455 -0.37719074 0.22869489 0.40417752 -2.156032 -1.7526692 -0.32007962 0.05685378
0.16635296 -1.080076 -0.9960366 0.30281752 -0.090899035 0.15100354 -3.5506904 -3.7399518
0.17322008 0.4187017 0.44413784 3.2829504 3.2061012 -0.1797572 0.09204237 0.36480772
-2.2268462 -2.6104455

0.bias f4 [10]
00000000: 40ff 1440 63d5 203e 1495 65bf 6bd7 39bf
00000010: 1905 8a3f f0ab e0be a6af 803e 3c44 1fc0
00000020: 10ce e73f 9cfe aebf
2.3280792 0.157064 -0.896806 -0.72594327 1.0782806 -0.43881178 0.2513401 -2.4885397
1.810976 -1.3671451

2.weight f4 [1, 10]
00000000: 6db2 c33d 5a56 83be 48c4 cabe b6d3 69bd
00000010: aa87 a83e 2105 bfbd 7932 28bf 0b40 a2be
00000020: e37e ac3d 6e59 02be
0.095555164 -0.2565182 -0.39602876 -0.05708667 0.32916003 -0.0932715 -0.65702015 -0.31689486
0.08422639 -0.12729427
