weights/pcos_68.pth (torch, 1695 bytes, 3 tensors)

0.weight f4 [7, 3]
000000 0d 5d d1 3e 6a 18 c6 3c 18 4d b9 3e 9d 32 c8 3d
       0.40891305 0.024181563 0.3619163 0.09775279
000010 ff 75 b3 3e 50 8e 12 3d 2a 88 3f be cc c4 c7 3e
       0.3505096 0.03578025 -0.18704286 0.39017332
000020 f9 25 10 3f 65 25 91 3e c9 7f af 3d dd 19 88 bd
       0.5630794 0.28348842 0.08569295 -0.06645558
000030 75 a7 10 bf 65 62 4e bc 48 74 3d be 66 ee 9d bc
       -0.5650552 -0.012596701 -0.18501389 -0.019278716
000040 52 55 81 be 80 63 e3 3e 4e a6 00 bd 50 d6 0c bd
       -0.25260407 0.4441185 -0.0314086 -0.03438407
000050 09 84 04 3c
       0.00808812

0.bias f4 [7]
000000 7b 2c 49 bf 37 8e 88 3e 8c de 80 bf 8f 7f b2 3f
       -0.78583497 0.26671 -1.0067916 1.3945178
000010 31 d9 51 bf ea 65 a9 bf 6c e9 ce bf
       -0.8197203 -1.3234227 -1.6164985

2.weight f4 [1, 7]
000000 41 af 8a 3e a0 8b 98 ba c3 0f 3f 3d f7 d9 5f be
       0.27086833 -0.0011638291 0.04664589 -0.2186049
000010 f8 fd d3 3e 0a f7 5e bd 7c 23 4d 3d
       0.414047 -0.054434814 0.05008267
